sign_model.pt (torch, 832107 bytes, 18 tensors)

conv1.weight f4 [50, 1, 5, 5]
000000 86 24 b7 bd 58 b1 f1 3d 42 86 10 3c 14 3c 40 3e
       -0.08942513 0.11801404 0.008821072 0.18772918
000010 49 b7 4a bd 2f be 36 3d 5b de 65 3d 5b a8 08 3e
       -0.0494912 0.044614967 0.056120258 0.13345473
000020 8e 85 20 3d 2f 58 c2 3d ad d0 75 3d 6f 43 79 3c
       0.039189868 0.09489476 0.06001346 0.015213831
000030 6e 9a e7 3d bc 6a 76 3d 25 34 da 3d 95 ca 49 3d
       0.11308752 0.060160384 0.10654477 0.049265463
000040 b9 ee 17 3d 12 20 06 3e aa 9a e1 bd d4 62 1c be
       0.037092898 0.13098171 -0.11015828 -0.15272075
000050 c4 68 c0 3d fe 69 e2 3d 2d c0 55 be c1 a2 50 be
       0.093949825 0.11055373 -0.2087409 -0.20374586
000060 46 61 36 3e c7 e8 09 bd fd 1b 0e 3e b1 f6 49 3e
       0.17810544 -0.03366926 0.13877864 0.19723012
000070 7b 6e 30 3e 06 4f 58 bd 45 b4 2e be 34 42 ef 3d
       0.17229645 -0.052809738 -0.17060955 0.11682549
000080 72 51 00 be eb 04 42 3e cc 09 ef 3d 36 4b ff bc
       -0.12531069 0.18947189 0.116717905 -0.031163793
000090 7f 55 fb 3d 5a 2f 90 bc 06 ff 2d 3e 54 27 a2 bd
       0.122721665 -0.017600704 0.16991815 -0.079176575
0000a0 f2 53 29 3b c8 28 a6 3d 9c 1e 55 bd f3 a2 3c ba
       0.0025837389 0.08113247 -0.052031144 -0.0007195912
0000b0 eb f1 ba 3d 70 14 4f 3e 96 ef df 3d 35 b8 84 3d
       0.091281734 0.2022264 0.10934369 0.06480447
0000c0 da b4 b4 3d cf db 99 3d d8 9c 45 3e 2b 13 08 3e
       0.08823557 0.07512628 0.19298112 0.13288562
0000d0 ea 01 3d 3e 03 b9 e5 bd 94 ce 1b 3e 7a 7e 00 be
       0.18457761 -0.11216929 0.15215522 -0.12548247
0000e0 71 96 1e be c1 be 10 be 39 41 46 3d 3b a2 54 bd
       -0.15487076 -0.14135267 0.048402045 -0.051912528
0000f0 71 58 81 bd 43 53 d1 3d 4f 25 18 be 01 7e d7 bd
       -0.06315697 0.10220959 -0.14857982 -0.1052208
000100 62 f1 15 3e 4b 3d 22 3e bc 7e 69 bd 75 2e 19 be
       0.14642861 0.15843694 -0.05700563 -0.14959128
000110 66 2f af 3d 83 0d 2c be 47 6e d3 bd c6 ac 4b be
       0.085539624 -0.1680203 -0.10323768 -0.19890127
000120 4d 5a 38 3e cb d1 08 3d c5 ba 64 bd f8 ec 73 bc
       0.18003197 0.0334032 -0.05584218 -0.014888041
000130 96 b6 bf 3d 57 bd 25 be fc 07 b3 3c 40 46 05 3e
       0.093609974 -0.16185509 0.021854393 0.1301508
000140 98 67 9f 3d b4 9b 18 bd 28 c2 2e 3e 0e 08 27 be
       0.07783431 -0.037257865 0.17066252 -0.16311666
000150 7a dd 17 bd 01 b9 50 be 7c 3e 7b bd 17 6c af 3d
       -0.03707645 -0.20383073 -0.061338887 0.085655384
000160 3f 4d 79 3d 68 eb 2b 3e 4c c9 c4 3d 08 ec 30 3e
       0.060864683 0.16789019 0.09608707 0.17277539
000170 eb e0 ac 3c 62 4f 8b bb 69 c9 f4 3d 47 f5 d9 3c
       0.021103343 -0.0042514065 0.119524784 0.026606215
000180 2e b9 1f be 35 3f 1e 3e 19 f1 40 3c 8c 88 da bb
       -0.15597984 0.15453799 0.011776232 -0.0066691097
000190 fe 42 0e be 99 45 a9 bd 0b 71 3d bc a9 18 68 bd
       -0.13892743 -0.08265228 -0.011562596 -0.056664143
0001a0 36 1b 44 bd 77 3f 84 bb ee 29 aa 3d 91 e4 d2 3c
       -0.047877513 -0.004035886 0.08308779 0.025743755
0001b0 d2 91 37 3d 25 a9 0c be 4e 20 3e be c2 7d 22 be
       0.0448168 -0.13736399 -0.18567011 -0.15868285
0001c0 d8 a9 70 bc e5 04 d2 3d 44 5e 1d 3e 3f 86 8b bd
       -0.014688931 0.1025484 0.1536799 -0.06812715
0001d0 b8 0a 12 3e 09 60 c1 3d 45 08 1d 3e 75 ca a4 3d
       0.14261901 0.094421454 0.15335186 0.08046428
0001e0 d4 5a 96 bd cf 43 0c be 1e b0 39 3e f6 b1 70 ba
       -0.07341543 -0.13697742 0.1813359 -0.00091817917
0001f0 80 2d c8 bc c6 55 5f 3d 5a b5 1c be 3f b8 34 be
       -0.024435759 0.05452516 -0.15303555 -0.1764841
000200 15 77 fa 3d 2f c5 15 3e 1f dd 03 3d fd 15 35 be
       0.12229744 0.14626001 0.0321933 -0.17684169
000210 10 7f d3 3d 51 2b 38 3e 40 51 27 be a3 47 03 bd
       0.103269696 0.17985274 -0.16339588 -0.03205074
000220 be 26 95 bd e0 a2 32 3d 0b 34 9b bd dd 96 e6 3c
       -0.0728278 0.04361236 -0.07578286 0.02814811
000230 a5 a3 e2 3d 5a 7e 2d 3d 8a af cc 3d 02 ec 23 be
       0.11066369 0.042356826 0.09994419 -0.16007999
000240 8b c1 37 3e 64 2d 4e be ec f9 d3 3d 93 d5 97 bd
       0.17944925 -0.20134503 0.10350403 -0.07413783
000250 24 15 e5 bd c1 83 08 3e 8c cb aa 3d 3f e4 20 be
       -0.11185673 0.1333151 0.08339605 -0.15712069
000260 54 cc a6 bd 53 6c 41 3d ba 11 3c bc 83 4d cc 3d
       -0.08144441 0.047222447 -0.011478836 0.09975722
000270 a9 7e 90 3d 9d 7d 21 3e 09 cc 39 3e c5 05 05 be
       0.070554085 0.15770574 0.1814424 -0.12990482
000280 39 ff a9 3b 00 eb 1b be 2b d1 69 3d 78 13 35 be
       0.0051878956 -0.15226364 0.057084244 -0.17683208
000290 91 c1 4b bd 20 ff f7 3d 40 43 35 3d c9 e6 fd bd
       -0.049745146 0.12109208 0.044253588 -0.123975344
0002a0 77 81 0d be ee 7c 00 be 33 83 b2 bd f6 0c bc bd
       -0.13818918 -0.12547657 -0.087164305 -0.091821596
0002b0 dd 4c 04 3e ae bb e3 3d f6 7c 51 3e 09 71 10 be
       0.12919946 0.111197814 0.20457825 -0.1410562
0002c0 3b 95 ff bd c7 b8 bb bd b4 c4 33 3e f9 f1 3b bd
       -0.12479635 -0.09166103 0.17555505 -0.04588506
0002d0 60 17 92 bd 03 00 32 bd 10 b0 7c bc 42 b2 35 3d
       -0.07133365 -0.043457042 -0.015422836 0.044359453
0002e0 e4 df 84 bc f0 42 33 be 8e 7a 2d 3e 0b 58 33 be
       -0.01622004 -0.17506003 0.16941282 -0.17514054
0002f0 2b ce 19 3e 50 a9 0b 3e c6 f6 27 3d 25 4b a4 3d
       0.15020053 0.13638806 0.041006826 0.08022145
000300 4e 3f 40 3e 6e fb fe 3d 9b 8d ea bd 7c b0 f1 bb
       0.18774149 0.124503 -0.1145279 -0.007375775
000310 44 90 e7 3d 32 a9 e3 bd 80 c5 48 be a0 d6 a4 3d
       0.11306813 -0.11116256 -0.1960659 0.08048749
000320 64 57 1e be f3 3e 24 3e da 44 4a be a2 f0 ef bc
       -0.15463024 0.16039638 -0.19752827 -0.029289547
000330 01 f7 cb bd 2a 0e ea bd de 21 89 bd 31 82 1f ba
       -0.09959222 -0.11428483 -0.06695913 -0.00060847687
000340 0a ad 3b 3e ec 19 6b bd 07 45 77 bd ba 75 c4 bd
       0.18327728 -0.057397768 -0.060368564 -0.09592767
000350 93 5d cc 3d 59 eb 03 be 9d 90 2a be 86 c9 db bd
       0.09978785 -0.12882747 -0.16656728 -0.10731797
000360 1b 74 0f be a6 ec 11 bc ed 95 ed 3d 5b 26 4b be
       -0.14009134 -0.008906519 0.11600862 -0.1983885
000370 7e 41 29 be b9 f3 40 be e6 c3 9a bd d6 6a 1b 3e
       -0.1652889 -0.18842973 -0.07556896 0.15177473
000380 58 19 3a be 41 9f a7 bc fb 7c f0 3d 0f 00 e2 bd
       -0.1817373 -0.02046168 0.11742588 -0.110351674
000390 6b 6b 9e bd 4b 56 bd bc 44 30 7d 3d 1d 48 3e be
       -0.07735332 -0.023112437 0.061813608 -0.18582197
0003a0 a5 8d de 3d 78 d1 13 3e cc ef f7 bd 4c 42 2b bd
       0.1086686 0.14435375 -0.121062845 -0.041811273
0003b0 57 41 30 be bc 8b 39 3d f1 f4 c1 3c cb f6 d1 bd
       -0.17212425 0.045299277 0.023676367 -0.1025215
0003c0 c5 81 34 be f4 1e d3 3d df f5 aa bd 3d 9b 32 be
       -0.17627628 0.10308638 -0.083476774 -0.17442031
0003d0 a1 f7 81 3d 01 18 c3 bd 90 2c 15 3e f8 46 23 3e
       0.063460596 -0.09526063 0.1456778 0.15945041
0003e0 02 bb 05 be f8 0d 00 be af a5 0e be 6e 4c 0f be
       -0.13059619 -0.12505329 -0.13930391 -0.13994
0003f0 e4 6d eb 3b 9a b9 8a 3d 27 cf 81 bc 8a 36 3b 3e
       0.007184731 0.06773682 -0.015845848 0.18282524

conv1.bias f4 [50]
000000 00 9e 0e bd 17 d1 9b bd c8 0f d7 bd d0 5d e1 bd
       -0.03481865 -0.0760824 -0.10501057 -0.110042214
000010 6d 52 41 bd 57 7e 15 3e 12 65 9c 3d aa 89 fc 3d
       -0.047197748 0.14598976 0.07636465 0.12330945
000020 dc 0f 6c 3d 2e 30 e4 bc 2b ea 48 be 28 65 a0 bd
       0.057632312 -0.027855005 -0.19620578 -0.07831794
000030 5f 70 aa bb 53 12 00 bd f5 41 2f bd 6f ce 41 3e
       -0.005201384 -0.031267475 -0.04278751 0.18926404
000040 38 c1 24 3d db b4 a2 3c b4 37 43 be 76 31 2b be
       0.04022333 0.01986163 -0.19064218 -0.16718087
000050 81 c4 29 3e fe d8 2b bc 78 b8 3c 3d 9f 55 3b be
       0.16578867 -0.010488747 0.04607436 -0.1829438
000060 4b 3b 91 3c d8 dc b8 3c 33 48 16 3e bd ad 59 bc
       0.017728468 0.022566244 0.1467598 -0.013286051
000070 c1 20 c3 bc fc ba a0 bc 16 38 f3 bd 4f a2 c9 3d
       -0.02381933 -0.019620411 -0.11875932 0.09845411
000080 d8 b3 99 bc 85 65 0e 3e 39 21 42 3e 47 db dc bd
       -0.018762514 0.13905914 0.18957986 -0.10784011
000090 28 eb 9b 3c 04 37 06 be 38 3f 05 bd a7 8a bd 3d
       0.01903303 -0.13106924 -0.032530993 0.092549615
0000a0 a7 01 06 be 99 9c fd bd 78 1c 33 bd 87 36 fc 3c
       -0.13086568 -0.12383384 -0.04372832 0.03078772
0000b0 69 1f 9d bc 72 9b c4 3d 85 a9 04 3e ba 26 b9 bd
       -0.019180017 0.09599961 0.12955292 -0.0904059
0000c0 3a fe 4b be 69 35 2b 3e
       -0.19921198 0.16719593

conv2.weight f4 [60, 50, 5, 5]
000000 84 d3 0b 3d 82 fe 53 bc fe ce c4 3c 33 c2 cc 3c
       0.034137264 -0.012939097 0.024024483 0.024994945
000010 23 be a5 3c 6f 26 af bc 37 c8 7d 39 f1 26 66 3c
       0.020232266 -0.021380631 0.00024202546 0.01404737
000020 2d 2e 87 bc 38 8c 82 bc 39 9e 92 3c 44 18 31 ba
       -0.01650151 -0.015936002 0.017897712 -0.000675563
000030 97 ec af bb 17 d8 2d ba 02 6c ba 3c 06 4f ca 3c
       -0.00536878 -0.0006631626 0.02275658 0.024695884
000040 bf fa e3 bb 26 c7 d3 bc d3 6a dd 3c 21 b9 4d bc
       -0.0069573815 -0.025851797 0.027028477 -0.012556345
000050 25 be a3 3c 5f f2 d4 3c 37 57 bf 3b b9 a2 30 bb
       0.019988129 0.025994478 0.0058392542 -0.002695246
000060 6b fe 65 ba 67 e5 e3 3c 23 7b e4 3c 2c 30 6b 3c
       -0.0008773568 0.027819348 0.027890747 0.014354747
000070 73 4b 83 ba 34 b7 ca 3b ae 2a 06 3c 7a e1 84 bc
       -0.0010016992 0.0061863903 0.008188887 -0.016220797
000080 54 6a ab bb c7 5f f4 3b 7e 1c 27 bc cf 33 a6 ba
       -0.005231181 0.0074577066 -0.010199664 -0.0012680235
000090 14 ad ec 3c 36 6e 20 bc c5 b9 05 3c c5 70 c0 bc
       0.028891124 -0.009791901 0.008161967 -0.023491273
0000a0 0f 29 f6 bb ba 8e 13 bb 97 e3 81 3c 3b da af bc
       -0.007512219 -0.0022515492 0.015855594 -0.021466365
0000b0 27 65 92 3c 6a e9 ec 39 48 9c 04 3b 01 81 b3 3c
       0.017870499 0.00045187335 0.0020234752 0.0219121
0000c0 70 93 ad bc f6 cc 34 ba 36 51 97 bb 65 1d 69 bc
       -0.021188468 -0.00068969966 -0.0046178354 -0.0142282
0000d0 82 6b fc 3b 60 15 4b bc ec 2e 5a bc 3e 96 b4 3c
       0.0077032456 -0.012395233 -0.013316851 0.022044297
0000e0 22 ac 9e 3c cc d1 f1 bc 91 1e 87 bc a4 f5 16 3c
       0.019369189 -0.029518984 -0.016494067 0.009213839
0000f0 5d 23 45 3b 3e 5e 81 bc 38 31 90 bc 31 37 39 3c
       0.0030080893 -0.015792008 -0.017601594 0.011304663
000100 91 dd 54 bb df 98 c9 bc 8f f8 8e 3c ec ca 49 bc
       -0.0032480697 -0.024609027 0.017452506 -0.012316447
000110 4c f7 9c 3c 72 9d a8 3c 12 f7 f6 bb 9b e2 b3 bc
       0.01916089 0.020582888 -0.0075367773 -0.02195864
000120 1a ba 96 bc 6b 39 45 bc 3e f1 1f 3c 2f 94 84 3c
       -0.018399287 -0.012037615 0.009762106 0.01618394
000130 ef 7a 9b 3c 44 5b f0 bc 88 1c f9 bb a9 6d 89 bc
       0.018979518 -0.029340394 -0.007602278 -0.016775923
000140 2c e1 b2 bc 87 95 81 3c 0c 7c c3 bc 42 c5 bf 3c
       -0.021835886 0.01581837 -0.023862861 0.02340949
000150 4b c2 3a bc 11 91 5b bc 9f f3 8d 3c a8 78 b7 ba
       -0.011398862 -0.013401286 0.017328082 -0.001399775
000160 e9 26 83 bc 7d f1 cc bc e1 27 c1 3b c9 7b be bb
       -0.016009765 -0.025017494 0.0058946465 -0.005813096
000170 d8 37 d4 3b 94 6d 8c bb 26 24 38 3c aa 8e 53 3c
       0.0064763837 -0.0042855237 0.011239087 0.012912432
000180 10 c6 bb 3c fb bb 15 bc f6 38 10 3b 30 de ca bc
       0.022921592 -0.009139056 0.0022006608 -0.02476415
000190 36 de b6 3c 9d 81 2c bc 23 c8 40 bb 40 f4 bb 3c
       0.022322755 -0.010528949 -0.0029416166 0.022943616
0001a0 81 4d 48 bc f0 84 79 bc e1 db 80 bc 04 07 c6 bc
       -0.01222551 -0.015229449 -0.015729846 -0.024173267
0001b0 11 da 48 bc 32 89 a2 3c 7f fd 73 3a d6 b2 a9 3a
       -0.012259022 0.01984081 0.0009307488 0.0012946974
0001c0 ed fd 0e 3c 63 6c a6 bc 08 97 c3 3b 81 6a 9a 3c
       0.008727533 -0.020315355 0.005968932 0.018849613
0001d0 85 93 59 bc a4 19 8c bc 17 95 f2 bb c8 e0 13 3a
       -0.0132798 -0.01710207 -0.007403027 0.00056411
0001e0 ca d6 31 3c ee d5 90 bc d5 3f a5 bb bf ab 56 bb
       0.010854432 -0.017680135 -0.0050430098 -0.0032756177
0001f0 fc ae 04 3c cf d1 1b 3d 9c e0 70 3c 5a 18 94 bc
       0.00809836 0.038041886 0.014701989 -0.018078018
000200 3f 45 d6 3c 89 5d c3 3b 11 7e 64 bc ca 7e 32 bc
       0.026156066 0.005962078 -0.013946072 -0.010894487
000210 39 af 53 39 9e 95 b5 3c 6d 2b 2b bb 6e 8a 96 bb
       0.00020187804 0.02216607 -0.0026118413 -0.004594139
000220 3b aa 89 3c d8 ea 64 bc 1a 9e 79 bc b2 9b cf 3c
       0.016804805 -0.013972007 -0.015235448 0.025342796
000230 d4 40 8e 3c 65 a4 7b 3c 4d d0 9a 3b 91 84 1e 3c
       0.017364897 0.015359019 0.0047245384 0.009675161
000240 2d aa b3 bc 59 f1 2d 3c 62 01 7a bc 63 c4 94 3c
       -0.021931732 0.010616624 -0.015259119 0.01816005
000250 8f d1 7f 3c ed 1f 04 3d 62 0c 85 3c de 27 d7 3c
       0.0156139275 0.03225701 0.016241256 0.026264127
000260 fc 2e 78 bb c8 dd c7 3c 0b 15 8c bc 9a 63 79 3c
       -0.0037869802 0.024397746 -0.017099878 0.015221501
000270 31 6b f6 3c 6f 54 0a bc e5 21 c6 3b f8 a2 b2 3c
       0.03008041 -0.008442982 0.006046521 0.021806225
000280 31 03 b7 3b 08 23 cd bb 74 14 1f ba 73 3a 22 3c
       0.0055850972 -0.0062602796 -0.00060684164 0.009901631
000290 b4 80 9a bb 24 da 9c 3c 67 5f 9f bb 04 27 84 bc
       -0.0047150496 0.019146986 -0.004863668 -0.016131885
0002a0 cf ef 58 bc 60 6b 2f 3a 89 2b 4f ba 6b 4b 62 bc
       -0.013240769 0.00066917203 -0.00079029106 -0.013811926
0002b0 cd 6f 97 3c d2 87 03 3c 31 90 c4 bc 8f 1c fd bb
       0.018485928 0.008027988 -0.023994537 -0.0077243517
0002c0 96 6d 9e bc 1c 90 15 bc bf cc c2 bc ca 82 e6 bb
       -0.019339364 -0.009128597 -0.023779271 -0.0070346342
0002d0 80 0d ab bc 96 13 8a 3b 11 14 2e bc 91 3a 31 3c
       -0.02088046 0.0042137606 -0.010624901 0.010817186
0002e0 db a9 e7 3c a0 14 86 3c 41 d4 67 3b 41 d1 cf bc
       0.028279236 0.016367257 0.0035374316 -0.025368335
0002f0 24 3b 02 3d d1 d4 6f ba ad 03 73 3b 59 ae 84 bb
       0.031794682 -0.00091488386 0.0037081048 -0.004049104
000300 d1 04 81 bc 34 de 7a 3c a2 e3 1e bc 77 91 58 bc
       -0.015749367 0.015311766 -0.009697827 -0.013218275
000310 c6 69 38 bc a2 cf b9 bc d4 54 cd 3c 43 e5 1b bc
       -0.011255687 -0.022682015 0.025064863 -0.0095151095
000320 d8 eb 92 3c c9 4b f2 bc 90 5c d7 3b b6 e8 86 39
       0.017934725 -0.029577153 0.0065723136 0.00025731855
000330 98 0d b4 3c 63 a7 53 bc f3 b8 84 3c 94 84 b3 3c
       0.021979138 -0.012918326 0.016201472 0.021913804
000340 a4 b6 cd 3c 06 0a c1 3b 7f 50 b6 bb 0c 63 81 bc
       0.025111504 0.0058910875 -0.005563795 -0.0157943
000350 c0 5c 91 3c 73 fe 2b 3c 2d f4 cb 3c 63 77 8a 3c
       0.017744422 0.010497677 0.024896706 0.016902631
000360 7f e0 83 3c 96 e6 ae bc f2 8d 6a 3a 20 e3 e4 bc
       0.016098259 -0.021350186 0.0008947543 -0.027940333
000370 22 56 da bb 77 93 19 3c 15 15 e9 bc 7b 51 17 3c
       -0.0066631 0.009373537 -0.028452436 0.009235735
000380 0a 3a 69 bc 6c 6b ec bc 2a 20 84 3c 4e 03 a4 3c
       -0.014235029 -0.028859816 0.016128618 0.020021107
000390 92 4f ce 3c 7a f3 90 bc ce 11 cd bc 5e c1 96 bc
       0.025184426 -0.017694224 -0.025032904 -0.018402752
0003a0 91 2f d4 bb bc 94 8f 39 62 15 6f bc 8b 92 66 ba
       -0.006475397 0.000273859 -0.0145925 -0.00087956403
0003b0 66 5c 41 bc 5a cf c4 bc f9 ac db 3c a1 55 a5 bc
       -0.011801815 -0.024024654 0.026815878 -0.020182433
0003c0 00 fa af bc 18 bd 67 3c 2c 50 f1 b9 3c 6e b1 bc
       -0.021481514 0.014144205 -0.00046026835 -0.02165901
0003d0 71 1e c2 3c 92 72 a0 bc 6c 4f 06 3b 78 c4 ca 3c
       0.023696156 -0.019585881 0.0020494116 0.024751887
0003e0 3f 30 da 3b f3 2c 8c 38 f5 b5 eb 3b 0e ef ee 3b
       0.0066585834 6.684093e-05 0.007193322 0.007291681
0003f0 52 2a 22 bc ce 90 03 bc 42 09 de ba eb e4 f2 38
       -0.009897785 -0.00803013 -0.0016940015 0.000115820985

conv2.bias f4 [60]
000000 7e 14 81 bc 68 09 d2 3b 9e 20 3c bc e7 63 d0 bc
       -0.015756842 0.0064098127 -0.011482386 -0.025438262
000010 c8 27 96 3b d0 6b 8a 3b 74 4b 29 3c f2 98 87 bc
       0.004582379 0.004224278 0.010332931 -0.016552422
000020 bc 45 df bb d2 9e a0 3c 82 1b 83 bc 22 ff ad 3c
       -0.006813733 0.019606981 -0.016004328 0.02123982
000030 c8 e4 44 3c 78 bc e1 3c 7c bf 19 bc 38 b0 53 3c
       0.012017436 0.02755569 -0.009384032 0.012920432
000040 ae fa a7 3c ee d3 14 bc 3c 25 16 bc a2 e6 b3 3c
       0.020505276 -0.009083731 -0.009164151 0.02196056
000050 c0 cd 8b bc b4 a6 1f bc 70 ed da 3c b2 e5 36 bc
       -0.017065883 -0.009744335 0.026724547 -0.011163162
000060 72 16 b1 bc 80 53 25 3b 3e ec b5 bc f8 5e c4 3c
       -0.021617148 0.0025226772 -0.022207376 0.023971066
000070 b6 da 9a 3c 60 83 75 3c 0f 1b c9 bc 48 00 f8 3b
       0.018903118 0.0149849355 -0.024549035 0.007568393
000080 b2 66 80 3c d0 1e 3f bb 1f e8 c5 bc b6 9a b6 3c
       0.015673969 -0.0029162653 -0.024158536 0.022290569
000090 0f 4e a0 bc 00 8d 1c 3b 16 66 cd bc 04 96 39 3c
       -0.019568471 0.0023887753 -0.025073092 0.01132727
0000a0 00 dc fa 3b b6 5e c8 bc 72 e6 b3 3c de da 88 bc
       0.0076556206 -0.024459224 0.02196047 -0.016705927
0000b0 0c 3a aa bc b0 74 45 3c 64 13 62 3c 56 c4 a8 3c
       -0.020779632 0.012051746 0.013798568 0.020601433
0000c0 20 77 59 ba 80 e9 a6 bc 26 6a 54 bc ea 41 c0 3c
       -0.0008295644 -0.020375013 -0.012964761 0.02346893
0000d0 70 9c aa ba 10 97 b7 3a 34 6f be 3c 5c 17 1e 3c
       -0.0013016593 0.0014006812 0.023246385 0.009649124
0000e0 92 94 93 3c 7e c7 c7 b9 90 cf c8 3c f5 c2 4f bc
       0.01801518 -0.0003810487 0.024513036 -0.012680759

conv3.weight f4 [80, 60, 3, 3]
000000 61 1a 54 bc f7 2b 8b bc 04 92 29 bd f5 71 f1 3b
       -0.012945742 -0.016988738 -0.041399017 0.007368321
000010 07 04 f8 bc d2 52 cf bc 1f 08 a1 3b 88 0b 85 3c
       -0.030275358 -0.025308046 0.004914298 0.01624085
000020 32 27 1a bd a4 e4 10 3d d4 61 c0 bc d7 87 68 3c
       -0.037635036 0.0353743 -0.023484148 0.014192543
000030 2f 79 4c 3b 6e 95 23 3b 81 5d 1e bd 93 3e 20 bd
       0.003120016 0.0024960893 -0.03866339 -0.039122175
000040 4f 4f 01 bd 66 44 7c 3b 80 cc f5 3a 51 3e 86 3c
       -0.031569775 0.0038492917 0.0018752962 0.016387137
000050 96 1a 0e bd 1a 8b dc bc 97 70 48 3c ff 58 2a 3d
       -0.034693323 -0.026921798 0.012233875 0.04158878
000060 d7 fd 67 bc 12 de 76 bc c5 44 d1 bc af fd 2c bd
       -0.014159641 -0.015067594 -0.025545487 -0.04223412
000070 70 d0 5d 3c 3c 80 8d 3c 22 87 27 3d 5f ff 09 3c
       0.013538465 0.017273061 0.040900357 0.008422702
000080 3c 7b ca bc b3 5c 53 bc a6 3e 8a bc 55 a5 97 3b
       -0.024716966 -0.012900519 -0.016875576 0.0046278634
000090 12 e2 a1 bc af c7 fa bc fe ea 01 bd 73 2e 2b bd
       -0.019761119 -0.030612795 -0.031718247 -0.041792344
0000a0 5c dd 1a 3b a0 f6 00 3d 2f 38 40 bc db 9d 08 bd
       0.0023630476 0.0314852 -0.011732145 -0.033353668
0000b0 40 68 5f bc 46 4c 2a bd be 06 c6 bc ce 58 04 bd
       -0.013635695 -0.041576646 -0.024173137 -0.032311253
0000c0 72 66 4a 3b 1d e5 22 3d 5f 3d 17 bd 20 b0 0b ba
       0.0030883816 0.03976928 -0.036923762 -0.0005328674
0000d0 08 2e 20 3d 6b 1f 8e bc b6 04 e9 3c 84 cb a1 bc
       0.0391064 -0.017348966 0.02844463 -0.019750364
0000e0 b0 ec 2f bd 3c 23 e2 bb 8d 8a 43 bc d0 d2 d6 bb
       -0.042950332 -0.006901173 -0.011934889 -0.0065558925
0000f0 dd 1f 29 bd 0d 89 da bc 3c e1 86 bb e7 a1 35 bc
       -0.041290153 -0.026676679 -0.0041162055 -0.011085964
000100 55 da 28 bb 11 f4 5b 3b 25 40 7e bc 6f 38 25 bd
       -0.0025764902 0.0033562223 -0.015518223 -0.040337022
000110 2a ea 17 bd 8f b0 4a 3c d0 ed 26 bd 71 01 b0 bc
       -0.03708855 0.012371196 -0.04075414 -0.021485062
000120 68 7a 1f bd 31 84 f0 3c 28 b1 12 ba 97 68 d5 bb
       -0.038935095 0.029359909 -0.00055958563 -0.006512712
000130 f5 89 d0 3b c1 de 11 bd 1b a8 a2 bc 4b 89 07 3d
       0.006364102 -0.035612825 -0.01985555 0.033089917
000140 54 ad 40 bc a2 ed 96 bc 5c 34 09 3c af 9b a1 3c
       -0.011760075 -0.018423859 0.0083743 0.019727556
000150 2c 35 18 bd 7b f4 2e bd 85 e6 fc bc b0 68 5c 3c
       -0.037160084 -0.042713623 -0.030871639 0.013452694
000160 26 97 5a bc 42 64 89 bc 4b 99 1b bc b6 57 0a 3d
       -0.013341701 -0.01677144 -0.009496997 0.033775054
000170 43 56 29 bc 7f 82 07 3b 5b 14 42 3c 6d 02 04 bd
       -0.010335508 0.0020677147 0.011845673 -0.032228876
000180 a2 d8 19 3d 3c 0b 35 3b 93 17 1e 3d ff ae fb 3b
       0.037560113 0.0027625104 0.0385967 0.0076807733
000190 d6 fb 0b bc 89 f2 09 3b 97 75 1f 3c df d6 09 3d
       -0.008543929 0.0021049103 0.009732625 0.033652183
0001a0 34 64 45 bc 0e 07 1e 3c a5 50 0d bd 30 95 ea bc
       -0.012047816 0.009645237 -0.034500737 -0.028635591
0001b0 96 bb bb bc 78 f9 62 3c da 1c 7d ba d9 e0 1c 3d
       -0.022916596 0.013853423 -0.00096554833 0.03830037
0001c0 99 7b 6c 3c fc 62 44 bc 51 03 28 3d 55 b8 13 3d
       0.014433765 -0.01198649 0.041018788 0.036064465
0001d0 75 68 03 bc 7e bc ff bc 02 9d c1 3c 03 3c 2a 3d
       -0.00802051 -0.03121781 0.023634437 0.041561138
0001e0 7a be b3 bc c2 5b f3 bc c7 29 a1 bc 41 ea a0 bc
       -0.021941412 -0.02970684 -0.019673241 -0.019642951
0001f0 ac 29 16 3d 8f 43 2c 3c dd b0 e6 bc 36 7b a9 bc
       0.036660835 0.010514154 -0.028160507 -0.020688634
000200 92 11 1e 3d 4b 1e e3 3c 8a 80 fe ba 71 07 11 3d
       0.038590975 0.027724406 -0.001941697 0.035407487
000210 04 e0 13 bd 04 2f cd bc c8 bc 0a bc c2 fa 01 bd
       -0.03610231 -0.025046833 -0.0084678605 -0.031733282
000220 5c c3 ed 3c 91 c4 f0 3b 3c a8 ae bc d3 85 a2 3c
       0.029023819 0.0073476513 -0.021320455 0.019839203
000230 55 f8 17 3d 9c 92 02 bb a9 69 e4 bc 62 d5 c8 bc
       0.037102062 -0.0019923812 -0.027882414 -0.024515811
000240 c4 fc 00 3d d2 28 8f 3c 82 fa 2b 3d 23 ce 2a 3c
       0.031491056 0.01747552 0.04198695 0.010425123
000250 de c4 28 bd 67 b6 2d bd ea 32 ce 3c d4 ff 3c 3c
       -0.041203372 -0.04241028 0.025170762 0.011535604
000260 43 90 1b bd e3 fa 6c 3c fd b7 3f bb 12 0d 93 3c
       -0.037979376 0.014464113 -0.0029253953 0.017950568
000270 dc cd f4 3c 72 04 e8 bc a7 77 91 bc 20 3b 68 bc
       0.029883318 -0.028322432 -0.01775725 -0.014174253
000280 d5 c8 db bc e9 04 86 bb 07 9c cc bc e0 3a 93 3c
       -0.026829163 -0.004089941 -0.024976743 0.01797241
000290 6b af ae bc 94 2c 27 3d 8f 81 7a 3c 15 4b d4 bb
       -0.02132388 0.040813997 0.015289678 -0.006478677
0002a0 82 a1 09 3d a5 8b c8 3c d8 60 92 bc b1 ba 0b 3d
       0.03360129 0.02448065 -0.017868444 0.03411359
0002b0 21 c2 ca bc fa 8d 17 bd 75 db 10 bd d9 45 9e bb
       -0.024750771 -0.037000634 -0.03536554 -0.004830104
0002c0 8c 40 2a 3d 7f 9f 05 bd d8 30 95 bc 08 29 e6 b8
       0.041565463 -0.03262281 -0.018211767 -0.00010974897
0002d0 a5 18 c0 bc 35 a1 1c bc bb 1f 9d 3c 40 19 10 3d
       -0.023449251 -0.009559919 0.01918017 0.03518033
0002e0 d0 e3 10 3d 07 98 ca 3c a3 39 36 bc a3 a4 a2 3b
       0.03537351 0.024730695 -0.01112214 0.004963474
0002f0 cb 62 21 bd 81 a4 71 bc 2b 52 2b 3c ed 80 82 bc
       -0.039400857 -0.014748693 0.010456602 -0.015930617
000300 89 b1 2f 3c f9 2f e3 bc 10 24 c0 3c c9 eb 27 3d
       0.01072348 -0.027732836 0.023454696 0.040996347
000310 af 27 fc 3c 04 7c ae 3c b4 89 b5 3c f5 a0 d0 bc
       0.030780641 0.02129937 0.022160389 -0.025467375
000320 c0 4e ec 3c 25 65 ad bc d7 31 6a bc 41 0f 2e bd
       0.028846145 -0.021166394 -0.014294109 -0.042495016
000330 ec 98 1f bd c6 61 c7 bc a1 4b a9 bc d3 35 d4 bc
       -0.038964197 -0.024338614 -0.020665945 -0.025904572
000340 02 ba 2d bc d8 e0 a9 bc d4 2e 6e bc a8 ac aa bc
       -0.01060343 -0.020737097 -0.014537532 -0.020834282
000350 69 41 89 3b 29 98 90 bc d8 6f 48 3c 73 07 89 bb
       0.0041887057 -0.01765068 0.012233697 -0.004181796
000360 e9 34 91 3b 4c b1 4a 3c 2a cc 1b 3d a1 3e 4d 3a
       0.004431356 0.012371372 0.038036503 0.0007829462
000370 59 5b 90 3c 30 72 27 3d 63 7f dd bb 8c 48 33 3c
       0.017621683 0.040880382 -0.0067595704 0.0109425895
000380 b6 c3 d4 39 b2 20 15 3c 9b 0c 2e 3d 6b b0 19 bc
       0.00040581607 0.009102033 0.04249249 -0.00938044
000390 2d ec ba bc 56 f3 27 bb be 8c 7a bc fe 17 99 bc
       -0.022817696 -0.0025627217 -0.015292345 -0.018688198
0003a0 ab ba 1c bd e0 f4 74 3c 53 1f 16 bd be fe 2b bd
       -0.038263958 0.014950961 -0.036650967 -0.041990988
0003b0 35 31 57 3c 73 db 1f 3d e1 e7 00 3d 92 e0 01 3d
       0.01313429 0.039027642 0.031471137 0.031708308
0003c0 1a f7 f5 b9 4b b6 11 bc 6d e8 9b 3c 23 9c 9d 3c
       -0.00046914147 -0.00889356 0.019031728 0.01923949
0003d0 e9 8c 89 bc 4b 68 09 3c 16 82 1f bd d5 52 ba 3a
       -0.016790824 0.008386682 -0.03894242 0.001421536
0003e0 3c 9e 0d bd fe bf 1b 3d 5f c0 01 bb 69 30 07 bd
       -0.034574732 0.038024895 -0.00197985 -0.033005152
0003f0 af fb 13 3d 9f 99 ab bb 7d 2c fe bc 9d 77 2b 3c
       0.036128696 -0.005236819 -0.031027073 0.01046553

conv3.bias f4 [80]
000000 7f 36 db bc 9e c3 99 bb d8 59 1a 3d 56 ed 89 bb
       -0.026759384 -0.004692509 0.037683338 -0.004209201
000010 99 6c 0a bc 8e c8 af bb de bd 60 3c d2 1d 8d bc
       -0.008448743 -0.005364484 0.013717143 -0.017226133
000020 63 04 93 bc 10 00 c1 3c 38 c3 ef bc 9f 92 a4 bc
       -0.017946428 0.0235596 -0.029267892 -0.020089446
000030 60 de a9 3c eb 42 01 3d af 4b 9c bc 10 d0 97 3c
       0.02073592 0.03155796 -0.019079057 0.01853183
000040 76 e5 fb bb 5c 08 31 3d f8 70 f1 bc 7c 0b 6c bc
       -0.007687266 0.043220863 -0.029472813 -0.014407035
000050 ca 39 1c 3c 7f f1 30 3d 9e 34 ba 3c e5 0f 91 bc
       0.009535262 0.04319906 0.022730168 -0.017707774
000060 42 61 38 3d 05 21 f9 bc 62 72 18 3d f8 91 29 bc
       0.045014627 -0.030411253 0.03721846 -0.010349743
000070 d1 c8 ed bc 36 94 06 3c ee 5a 29 3d 1b cf c9 3c
       -0.02902642 0.008214047 0.041346483 0.024634888
000080 7c 19 29 bc 94 1e 12 bd 44 c0 ee 3c df bd e8 3b
       -0.010321017 -0.035673693 0.029144414 0.0071027125
000090 72 64 ad 3c cf fc 76 3c 50 98 07 bd 48 64 04 3c
       0.02116606 0.015074923 -0.03310424 0.00808055
0000a0 8e 30 69 3b 20 ec ec bb 87 38 97 3c 90 cd 63 3c
       0.003558192 -0.0072302967 0.018459572 0.01390399
0000b0 2c 96 66 3c 41 b1 46 3b b4 7f 2a bc 56 cc b6 3c
       0.01407389 0.0030318054 -0.010406423 0.022314232
0000c0 2a d0 06 bd 2d cd e6 bb 1a 20 97 bc 7c 2c f4 3c
       -0.032913364 -0.007043502 -0.018447924 0.029806368
0000d0 c8 7c b7 3a eb 0b 7d 3b 46 ad d8 3c 5f 3b cf 3c
       0.001399898 0.003861184 0.02644981 0.025296865
0000e0 ef b2 91 bc 9b 03 3e 3d 3f b2 c9 3c 13 46 a3 bc
       -0.017785517 0.046390157 0.024621127 -0.019930875
0000f0 79 7f 9a bc a2 18 f0 bc 70 18 89 3c 87 4f 22 3c
       -0.018859612 -0.02930862 0.016735286 0.009906656
000100 f9 d4 11 3c e8 1e 96 3b c0 30 a7 bb 64 9a 28 3d
       0.008900874 0.004581321 -0.005102247 0.041162863
000110 e0 85 0c 3d a2 68 59 3c e5 77 19 bd 3e ba f2 bc
       0.03430736 0.013269575 -0.037467856 -0.029629823
000120 cb 18 4e 3d fb 52 24 3c 4a 82 ab 3c 4f 95 77 3b
       0.050316613 0.01002955 0.02093615 0.0037778204
000130 25 4f 92 bc 94 99 85 bc 9a 49 94 3c 41 6f 09 3a
       -0.017860005 -0.016308583 0.018101502 0.00052427134

batch_norm1.weight f4 [50]
000000 79 87 7e 3f 60 b5 7e 3f 4c a3 7e 3f 61 d2 7e 3f
       0.99425465 0.99495506 0.9946792 0.9953976
000010 26 06 80 3f 5c d0 80 3f 9a 8e 81 3f c3 1b 80 3f
       1.0001876 1.0063586 1.0121644 1.0008472
000020 1e 35 7f 3f 1b 97 7d 3f 82 82 80 3f c7 69 7f 3f
       0.99690425 0.99058694 1.0039828 0.9977078
000030 fd aa 7f 3f 64 f5 7f 3f da 07 81 3f d4 18 7e 3f
       0.9987028 0.9998381 1.0080521 0.99256635
000040 3b e9 7e 3f 9b bf 80 3f be 09 81 3f 30 70 7f 3f
       0.9957463 1.0058473 1.0081098 0.9978056
000050 be 08 80 3f 46 95 7e 3f 95 4e 7f 3f 1c 59 7e 3f
       1.0002668 0.99446523 0.9972928 0.9935472
000060 ce 93 81 3f 1f 2b 7f 3f 60 92 80 3f 33 74 7f 3f
       1.0123231 0.9967517 1.004467 0.9978668
000070 4c b8 81 3f c2 9b 81 3f 1c 9b 7f 3f 7b 2f 7e 3f
       1.0134368 1.0125659 0.99846053 0.992912
000080 f7 fb 7d 3f 7c 08 81 3f 28 5d 7f 3f cd 0e 80 3f
       0.9921259 1.0080714 0.9975152 1.0004517
000090 b7 33 7f 3f b9 28 80 3f f2 44 7f 3f 72 4f 7e 3f
       0.99688286 1.0012428 0.9971458 0.99339974
0000a0 82 de 81 3f f9 60 80 3f 79 09 7f 3f 92 25 80 3f
       1.0146029 1.0029594 0.9962383 1.0011466
0000b0 92 49 81 3f b0 9f 7e 3f d0 62 7e 3f 0e ef 7e 3f
       1.0100577 0.99462414 0.99369526 0.9958352
0000c0 bb 8b 7f 3f bc d8 7e 3f
       0.99822587 0.9954946

batch_norm1.bias f4 [50]
000000 1b ab 60 3b 43 85 b5 b8 cb 4b 9d 3b 64 b9 af 3b
       0.0034281674 -8.6555745e-05 0.004800295 0.0053626765
000010 55 41 3b bb e1 28 6b 3b 9b 13 9c 3b 0e 05 a3 3b
       -0.0028572876 0.003588252 0.0047630793 0.004974968
000020 66 85 bd ba 3d e7 e3 3a c4 14 1c bc 9f e0 8a b9
       -0.0014459311 0.001738764 -0.009526435 -0.00026488767
000030 e3 d5 6f 3a 7d ac 12 3b 00 11 7f ba 4d 6c 89 3b
       0.0009148998 0.0022380643 -0.0009730011 0.0041938187
000040 fc f0 90 ba 2b 54 b1 3b 18 08 f4 3b 5e 18 1b bb
       -0.0011058147 0.005411645 0.007447254 -0.0023665647
000050 b4 6b 27 3b a8 3d 18 3b 01 b2 4d 3b 0f 24 96 3b
       0.0025546374 0.002323011 0.0031386616 0.0045819352
000060 fe 31 44 bc c5 42 0a bc 19 53 28 bc e6 83 23 bb
       -0.01197481 -0.008438771 -0.010273718 -0.0024950444
000070 a3 73 61 ba 0b dc 81 3b 24 69 f6 3b 24 69 be 3b
       -0.00086003 0.0039629987 0.007519858 0.0058108736
000080 82 94 8c 3a a7 01 d8 39 0a 74 2e bb 8f c3 80 bb
       0.0010725411 0.00041199962 -0.0026619458 -0.0039295624
000090 27 ea 95 3b 90 33 58 3a ad 5c f3 39 98 56 0d 3c
       0.0045750323 0.00082474295 0.0004641762 0.008626603
0000a0 b1 a9 8c bb 9f 2c 12 bc 8f 6c 95 3b 94 b8 f3 bb
       -0.0042926897 -0.008921771 0.0045600603 -0.007437775
0000b0 b5 b8 48 bb 22 dc 09 3c 34 49 18 bb 42 b5 a2 3b
       -0.0030627672 0.0084143 -0.0023236992 0.0049654553
0000c0 7f 14 a4 3b 8c 82 07 3c
       0.005007326 0.008270871

batch_norm1.running_mean f4 [50]
000000 60 b3 f4 3e 0e d8 46 3f 8a 2e 73 be 75 06 76 3e
       0.47793102 0.77673423 -0.23748222 0.240259
000010 4a a4 c6 bd 7e c3 0b 3e 70 7b 8a 3d c9 37 db 3d
       -0.096993044 0.13648793 0.06761825 0.107039995
000020 57 e2 62 bf c7 f9 e1 be 69 6b 92 be 48 db 94 be
       -0.8862662 -0.44135877 -0.28597572 -0.29073548
000030 06 0b 57 be 0e e0 d2 3e 5c 6d da bb 02 e8 1f bf
       -0.21000299 0.41186565 -0.0066658687 -0.6246339
000040 0d 89 43 3f f3 ec c6 ba d8 03 3a be ef e1 bc bc
       0.76381 -0.0015176818 -0.18165529 -0.023056952
000050 ee b4 5d 3f 0d 38 a0 3e 35 84 c2 3e 3a 9d 20 bf
       0.866042 0.31292763 0.3799149 -0.6273991
000060 1c cd a4 3b 2b 2d 66 3b 68 f1 f1 3d 51 c6 d8 bc
       0.0050293338 0.0035122137 0.11813623 -0.026461752
000070 38 2c 6f bd b2 5e 79 bc 9e 3c df 3d 83 4a c2 be
       -0.05839178 -0.015220331 0.10900234 -0.37947473
000080 26 5d 9f 3e aa 66 b8 3d 11 4f 6a 3e 5c 16 21 be
       0.31125754 0.090039566 0.22881724 -0.15731186
000090 3f b0 d1 3e d8 d4 68 bd fe a0 25 bf 3d f2 9f bd
       0.40954778 -0.05684361 -0.6469878 -0.07809875
0000a0 38 06 f6 bd 1d 6d 59 be 04 0a 35 3e 22 f2 da be
       -0.12012905 -0.2123303 0.17679602 -0.42762858
0000b0 5c 61 c8 bd cf c4 8c 3e 66 58 e2 3e 3c b1 9c 3e
       -0.09784195 0.27493903 0.44208068 0.3060397
0000c0 b9 cb 5d bd 49 33 dc 3e
       -0.054149363 0.43007877

batch_norm1.running_var f4 [50]
000000 84 48 af 3c 77 5c 50 3d 20 1f 94 3b 5d 78 25 3c
       0.021396883 0.05086943 0.004520312 0.010099498
000010 73 fa 0a 3c 7c 11 69 3b 12 c5 02 3b a8 35 9b 3b
       0.008482563 0.00355634 0.001995389 0.004736621
000020 05 a1 6b 3d 2e 39 48 3c c7 86 28 3c a3 45 b9 3b
       0.057526607 0.012220664 0.01028604 0.0056540533
000030 db a6 cb 3b 70 4f c1 3c d5 93 ce 3b 5c 42 3d 3d
       0.006214959 0.023597449 0.006304244 0.046205863
000040 a4 ba 17 3d 9b 5e bf 3a 26 d2 1e 3b 12 75 11 3c
       0.03704323 0.0014600338 0.0024234145 0.008878009
000050 a1 23 29 3d 20 a9 1c 3c e0 8b 36 3c 6c 68 5d 3c
       0.041293744 0.009561807 0.011141747 0.013513666
000060 a8 40 4f 3b 46 39 39 3b 30 03 b9 3b 4b 69 db 3a
       0.0031624231 0.0028262897 0.005646132 0.0016739754
000070 83 cb 11 3c d3 44 0b 3c 9b 9c d9 3b 6c 7e 98 3c
       0.008898619 0.008500296 0.0066409833 0.01861497
000080 86 ab 0f 3c ea e9 81 3b f8 b6 fd 3b 69 89 68 3b
       0.008768922 0.0039646523 0.007742759 0.0035482293
000090 c2 29 2e 3c 9c e7 4c 3b 7d 8c c3 3c 6b e1 84 3b
       0.010630073 0.003126598 0.023870701 0.004055192
0000a0 07 67 b4 3b b5 f2 58 3b 67 c4 aa 3b 63 2f 6b 3c
       0.005505446 0.003310365 0.0052114013 0.01435456
0000b0 54 a5 58 3b 83 2f 96 3b f3 03 49 3c 34 1f 46 3c
       0.0033057528 0.0045833006 0.012269008 0.0120924
0000c0 eb 22 1d 3c f2 48 15 3c
       0.009590845 0.00911163

batch_norm2.weight f4 [60]
000000 42 8b 88 3f ec 28 8c 3f 83 39 8c 3f 32 87 90 3f
       1.0667498 1.0949988 1.0955051 1.1291258
000010 24 c3 8c 3f 1f 9f 8a 3f 33 a1 88 3f 56 d5 8c 3f
       1.0997052 1.082981 1.0674194 1.1002605
000020 f6 15 8b 3f 76 c2 8d 3f 24 83 89 3f 80 31 89 3f
       1.0866077 1.107497 1.0743146 1.0718231
000030 f7 f9 89 3f c1 f8 8a 3f e3 1c 8d 3f 6a db 88 3f
       1.0779408 1.0857164 1.102444 1.069196
000040 6e d8 8b 3f 72 63 8a 3f 0d f7 88 3f ae 12 8b 3f
       1.0925424 1.0811598 1.0700394 1.0865076
000050 d6 e6 87 3f a8 d1 8f 3f ad 9b 88 3f 5b 28 88 3f
       1.061732 1.1235857 1.0672508 1.0637316
000060 74 11 87 3f bd e7 88 3f 13 f5 88 3f db b4 8a 3f
       1.0552201 1.0695721 1.0699791 1.0836443
000070 a9 ed 89 3f 72 ab 88 3f b2 12 89 3f 4b be 85 3f
       1.0775653 1.0677321 1.070883 1.0448698
000080 6e e1 8d 3f b7 d0 8a 3f 9d 82 8a 3f 75 dd 8a 3f
       1.1084421 1.0844945 1.082111 1.0848833
000090 00 21 8a 3f f7 5e 88 3f 6d 86 8d 3f 3e b3 8a 3f
       1.0791321 1.0653981 1.1056648 1.083595
0000a0 53 05 8b 3f 46 16 8c 3f 7b e8 8b 3f 7f 2e 8b 3f
       1.0861 1.0944297 1.0930322 1.0873564
0000b0 08 41 86 3f 99 ec 89 3f 16 ef 8a 3f aa 05 88 3f
       1.0488596 1.0775329 1.0854213 1.0626729
0000c0 0d c3 88 3f 79 64 89 3f f3 90 8b 3f 0f c7 8a 3f
       1.0684525 1.0733787 1.090361 1.0841998
0000d0 6f e2 8b 3f 37 5b 88 3f b1 bd 8a 3f 9d a2 8a 3f
       1.0928477 1.0652837 1.0839139 1.0830876
0000e0 c2 e7 8a 3f 09 bd 8b 3f 66 e1 8d 3f 67 6d 8d 3f
       1.0851977 1.0917064 1.1084411 1.1049012

batch_norm2.bias f4 [60]
000000 c5 b4 93 3c 7d e2 03 3d db b9 ea 3c 46 21 29 3d
       0.018030534 0.032198418 0.028653076 0.041291498
000010 90 8c ed 3c 33 09 c3 3c 66 df c9 3c ca 8c 0c 3d
       0.02899769 0.023808097 0.024642657 0.034313954
000020 36 17 d5 3c 6d 48 02 3d 42 a5 c3 3c 77 ed bc 3c
       0.026012044 0.03180735 0.023882512 0.02306245
000030 a1 90 d8 3c 55 5c f2 3c fb ff 0c 3d 86 1e d4 3c
       0.026436152 0.029585043 0.03442381 0.025893461
000040 6f 8e cd 3c c8 7e c5 3c c6 c1 b8 3c c8 c1 e8 3c
       0.025092332 0.024108306 0.022553336 0.028412715
000050 0d cc ae 3c a4 86 1d 3d 92 90 c3 3c f8 90 ba 3c
       0.021337533 0.03845848 0.023872647 0.022774205
000060 fd 80 8c 3c 80 a7 ac 3c 45 82 c9 3c 05 ef fb 3c
       0.01715135 0.021075964 0.02459825 0.030753622
000070 df 25 d8 3c aa f4 c5 3c ea 6d f7 3c 41 4e a6 3c
       0.026385246 0.024164516 0.030203778 0.020300986
000080 16 1c 10 3d a3 a1 fa 3c 07 dc da 3c b2 2e f2 3c
       0.035183035 0.030594653 0.026716245 0.029563282
000090 f1 d5 e1 3c 90 4c aa 3c 13 02 f9 3c 06 09 b5 3c
       0.027567836 0.020788461 0.030396497 0.02209903
0000a0 e6 50 ca 3c 97 78 f6 3c c0 72 dc 3c 56 7a d9 3c
       0.024696779 0.030086799 0.026910186 0.026547592
0000b0 47 86 57 3c b8 a3 d0 3c 1a e8 f1 3c 71 42 b4 3c
       0.013154573 0.025468692 0.02952962 0.022004338
0000c0 84 18 be 3c a2 79 d0 3c c9 e7 ca 3c 99 47 d1 3c
       0.02320505 0.025448624 0.024768727 0.025546836
0000d0 2d 6f b4 3c 70 89 bd 3c 9f 84 a1 3c a0 62 d1 3c
       0.022025669 0.023136824 0.019716559 0.025559723
0000e0 49 a6 e0 3c 78 1b db 3c c5 0f 05 3d 60 6d 0a 3d
       0.027423041 0.026746497 0.032485742 0.033795714

batch_norm2.running_mean f4 [60]
000000 f1 93 ba bc c9 50 43 be fe e7 69 bc da 71 6c 3d
       -0.022775622 -0.19073786 -0.014276503 0.057725765
000010 94 f8 bb bc 49 3f e6 bc cb 97 2e bd 2d 59 26 be
       -0.02294568 -0.028106349 -0.04262523 -0.16244955
000020 bd 2d c7 3d 1d de 78 bc 63 dd f1 bc f3 5b 8f bc
       0.09725521 -0.015189675 -0.02952451 -0.0174999
000030 ec 6a 8e bc 1c 74 25 3d 3c 89 8c bd dc 32 17 3e
       -0.017384969 0.040393934 -0.06862113 0.14765495
000040 35 87 78 3d 0f c3 e2 3c 51 23 82 3d a7 73 0b be
       0.06067582 0.027680902 0.06354392 -0.13618337
000050 00 ac 61 bc f0 0a ae bd 4b 9e 0a 3c 36 72 a5 bd
       -0.013773918 -0.0849818 0.008460592 -0.08078425
000060 07 df 4e bd af b1 37 3e 91 34 f0 bd 26 5b 38 bd
       -0.050505664 0.17938875 -0.11728776 -0.0450088
000070 8b 06 62 3d f0 97 55 bd 6d 5b 82 be 6e 31 8d be
       0.05518202 -0.052146852 -0.25460377 -0.27576774
000080 fe 59 f0 bc 6e f6 01 be 15 24 26 bd 12 cb c8 bd
       -0.029339787 -0.12691662 -0.040561754 -0.098043576
000090 88 13 b6 bd f4 fb 51 3c 40 35 cf bc b0 d4 5e bd
       -0.08890444 0.012816418 -0.025293946 -0.054402053
0000a0 e2 37 60 3e 78 b8 b1 bb f9 b1 27 3e 9a 9c d3 bc
       0.21896318 -0.0054236017 0.16376485 -0.02583151
0000b0 31 31 14 3d 7c 37 e5 3c d8 a8 07 3c 32 ba 81 3d
       0.036179725 0.027980559 0.008280002 0.06334342
0000c0 fc a8 56 3d 8c 79 6b 3c 46 54 f8 bd e0 58 64 3d
       0.05240725 0.014372241 -0.12125449 0.05574882
0000d0 5e c4 fe 3c 51 74 76 be f5 3b 17 3d 69 df 37 bd
       0.031099495 -0.24067809 0.036922414 -0.044890795
0000e0 51 93 eb bd d6 86 52 bd f8 bf c2 3b cc 35 b6 3c
       -0.11502708 -0.05139812 0.0059432946 0.02224245

batch_norm2.running_var f4 [60]
000000 4a 7b ec 3d 05 95 d1 3d 43 38 d1 3d 91 ba cf 3d
       0.11546953 0.10233501 0.10215809 0.101430066
000010 4a a4 7c 3d 58 cb a9 3d ec 5a 0c 3e 6d 7a cf 3d
       0.061680116 0.08290738 0.13706559 0.10130773
000020 9a 73 96 3d 98 74 8f 3d 5e 0d cf 3d ab fa 9b 3d
       0.07346268 0.0700466 0.101099715 0.076161705
000030 cf 80 ba 3d 18 90 92 3d 86 77 a8 3d cf 13 de 3d
       0.091065995 0.0715639 0.08225922 0.10843622
000040 59 0a dc 3d 30 6a 90 3d 47 f5 bc 3d 5c c0 ac 3d
       0.10744161 0.07051504 0.092264704 0.08435127
000050 93 32 06 3e 04 79 83 3d c2 81 b9 3d 75 b5 ac 3d
       0.1310523 0.06419566 0.090579525 0.08433048
000060 79 9a 6d 3e 18 c0 16 3e a8 2f a2 3d 84 27 e4 3d
       0.23203458 0.14721715 0.07919246 0.111403495
000070 cd 77 d8 3d 05 69 c1 3d 2e 84 da 3d a9 32 42 3e
       0.10569725 0.09443859 0.106697425 0.18964638
000080 ad d4 cb 3d a4 16 02 3e 23 3f dc 3d 7f df e3 3d
       0.09952674 0.12703949 0.1075423 0.11126613
000090 7d 90 85 3d 89 46 e7 3d 22 cd 8e 3d ab 57 cd 3d
       0.065216996 0.112927504 0.0697272 0.10026487
0000a0 bd cc a8 3d 43 dd c7 3d d0 6d ae 3d 3a 02 7d 3d
       0.08242176 0.09758999 0.08517039 0.0617697
0000b0 f3 4e d6 3d 0d 20 9d 3d c3 f8 ab 3d e2 08 e4 3d
       0.10464277 0.07672129 0.08397057 0.11134507
0000c0 e9 c2 c4 3d c7 6b a0 3d f6 de 1f 3e 34 cb d7 3d
       0.09607489 0.07833057 0.15612397 0.10536805
0000d0 25 66 d6 3d 79 74 ef 3d 36 d7 08 3e 3f c7 fa 3d
       0.10468701 0.11692137 0.13363346 0.122450344
0000e0 db fb cc 3d da 6b 86 3d c5 a3 9a 3d c6 44 7c 3d
       0.10008975 0.0656354 0.07550768 0.061589025

fc1.weight f4 [250, 320]
000000 65 93 55 bc 0c 0e 49 bd 81 b8 6a bc 9e 39 27 3d
       -0.01303563 -0.04908566 -0.014326216 0.040826432
000010 3c 01 04 3d 67 56 4b 3c 71 01 73 bc 11 ca 3a 3d
       0.03222774 0.012410737 -0.014831887 0.04560286
000020 df 40 17 3d f5 03 29 bd 45 d9 d5 3c 99 b5 6d 3c
       0.0369271 -0.04126354 0.026104579 0.014508628
000030 39 8e 3e bd 16 b3 a2 3c 30 f2 58 3d de ef 14 bc
       -0.046522353 0.019860785 0.052965343 -0.009090392
000040 c7 7a e0 bc 6d d9 55 3d a9 10 86 3d 8f ee 63 bc
       -0.027402295 0.052209307 0.065461464 -0.013911857
000050 17 10 04 bd 5d 07 7f 3d 52 83 62 3d 43 a8 1a 3c
       -0.032241907 0.06226288 0.055301018 0.009439531
000060 20 2c c2 3c ba 06 8e 3d a5 60 2c 3d 2e 88 8c 3c
       0.023702681 0.06934877 0.042084355 0.01715478
000070 fd cd 81 bc 22 a7 c8 bc 19 14 0a bd c2 8b fd 3b
       -0.015845293 -0.024493758 -0.033710573 0.0077376077
000080 06 c7 56 bd dd c3 61 bd 38 5a 55 3b 0b 00 1c 3d
       -0.052435897 -0.05511843 0.0032554995 0.03808598
000090 83 04 47 3d 46 66 35 bd 58 be 28 3d 5c 14 1d bc
       0.048588287 -0.04428699 0.04119715 -0.009587374
0000a0 f7 d4 02 3d f4 c5 49 3d be 6f 89 3d 9c e7 8c 3c
       0.03194138 0.04926105 0.06710766 0.017200284
0000b0 08 00 92 bd b3 19 34 bd ec 38 06 3d d7 ed 01 bd
       -0.07128912 -0.04396982 0.03276913 -0.031720962
0000c0 71 38 b8 bb 86 4c 3f bb 98 5d 4f 3c 92 d8 4b 3d
       -0.0056219627 -0.0029189899 0.012656592 0.049767084
0000d0 13 00 07 bd c1 48 a3 bb 02 5d 35 bb c2 dc 6a 3d
       -0.032959055 -0.004983038 -0.0027673845 0.057339437
0000e0 b7 76 d8 3c 1a 76 e3 bc 00 94 b9 3c e0 dd 4a b8
       0.026423795 -0.027766276 0.02265358 -4.836719e-05
0000f0 bf c4 f5 3c 02 d8 82 3d 9f 9f 5e 3d b7 86 e3 bc
       0.030001042 0.063888565 0.054351445 -0.027774198
000100 63 d9 31 3d 8f 15 8e bc d8 62 2d 3c d2 43 0c bc
       0.043420207 -0.017344264 0.010582648 -0.0085610915
000110 4b 66 3f bb 49 ad a5 bc e0 46 04 3d 69 eb 4a bd
       -0.0029205258 -0.02022423 0.032294154 -0.04954091
000120 ae bd 89 3c b0 3e 47 3d be f4 14 3c eb 7b b9 3c
       0.01681408 0.048643768 0.009091554 0.022642097
000130 7d a0 0f 3d a6 03 f1 3b 8e 35 8e bc 79 f8 3f bd
       0.035065163 0.0073551713 -0.017359521 -0.04686782
000140 3e c2 22 3d 2f 1c c7 bb 37 d6 a8 bc 96 81 20 3d
       0.039736025 -0.006076358 -0.020609958 0.039186083
000150 f7 33 3a bd 14 34 64 3d 4a 61 17 bd 6c ad 2a bd
       -0.045459714 0.055713728 -0.036958016 -0.041669294
000160 68 a0 56 bc 00 88 d7 bc a4 7e 03 bd 6c 28 0d bd
       -0.013099767 -0.026309967 -0.032103196 -0.034462377
000170 15 6c 6a ba d7 f7 12 3d 8a b5 29 bd 9a 9f 05 bc
       -0.0008942497 0.03588089 -0.041432895 -0.008155728
000180 f3 dd 73 bd 1d 0e a5 3b 71 3a 38 3d ad 4d 4c bd
       -0.05953784 0.005037083 0.04497761 -0.049878765
000190 0c 3e 80 bc e6 6f aa 3c b4 59 31 bc ae 40 e1 bc
       -0.015654586 0.02080531 -0.01082461 -0.027496662
0001a0 83 0c 4e bd 68 1a 34 3c 6b 93 4c 3d 52 48 2e 3b
       -0.0503049 0.010992624 0.049945276 0.00265934
0001b0 bf 01 56 3d d1 22 1b bd ba f6 6c bc 35 1b 45 bd
       0.05224776 -0.037875 -0.014463121 -0.04812165
0001c0 2c bb 44 3d b9 4b 42 3d 3b 21 02 3d 8c 93 38 3d
       0.048030064 0.047435496 0.031769972 0.045062587
0001d0 26 43 cf 3c 94 e0 e2 3c cc 25 09 3d b4 ee 17 3d
       0.025300574 0.027694978 0.03348331 0.03709288
0001e0 99 21 5e 3c c9 c8 34 3d b9 74 8b bc 22 8e 39 3d
       0.013557815 0.044136796 -0.017023431 0.045301564
0001f0 55 7f 67 bd cd 63 95 3c 41 5a ec 3b 9f ea 7b 3c
       -0.056517918 0.018236065 0.0072129075 0.015375762
000200 66 24 5d bb 42 55 8a 3d 59 0c 6d 3d ce 57 2b 3d
       -0.003374362 0.06754543 0.057873104 0.041831784
000210 26 f3 ae 3c e0 04 4e 3d dc d7 4f bd aa f5 f3 3c
       0.021356177 0.050297618 -0.05074297 0.029780228
000220 d5 c4 80 bd 7a 1f 93 bd 82 19 81 bd d4 af 88 3a
       -0.06287543 -0.07183738 -0.06303693 0.0010428377
000230 77 e2 a0 3c c1 ed ee bc 9c 30 42 3d 61 f5 2b bd
       0.019639237 -0.029166104 0.04740964 -0.04198206
000240 14 07 40 3c 95 5d 0d 3d 88 89 48 bd 17 ed 55 3a
       0.011720438 0.034513075 -0.048959285 0.00081606343
000250 c9 19 9f 3d d3 ba 8d 3c 59 56 7f 3d 6f 64 99 3d
       0.0776859 0.017300999 0.062338207 0.07489859
000260 0a 04 27 3d 49 52 0d 3d 97 d9 0d 3d e0 d9 49 3d
       0.040775336 0.0345023 0.034631338 0.049280047
000270 f4 b8 3c 3c 33 5d 30 3d fe df 16 bd 88 c5 0a bd
       0.011518706 0.04305763 -0.03683471 -0.033879787
000280 dd 2e 3d 3d 6c 98 37 3c 68 5e 6a 3d d3 68 40 3d
       0.04618727 0.011205774 0.05721894 0.04697497
000290 8b a9 1c 3d 0a b4 78 3d 11 2c 22 3d a5 41 22 3d
       0.038247626 0.060718574 0.039592806 0.039613385
0002a0 b6 6f fb bc 73 9c 87 3d 57 99 43 bc 02 a6 53 3d
       -0.030692916 0.06621637 -0.011938415 0.05167199
0002b0 2d e3 08 bd 38 d2 20 3d 8f df 99 3c 9b 7a 57 3d
       -0.033419777 0.03926298 0.018783359 0.05260716
0002c0 d9 04 08 3d 99 16 85 bc 77 ff 65 bd 65 eb 1b bd
       0.033207748 -0.016246127 -0.056151833 -0.038066287
0002d0 1b 6f b5 bc bf d0 1d 3c e2 af 89 3b b8 1f 8b 3c
       -0.022147706 0.0096322885 0.004201875 0.016982898
0002e0 de 6e 50 3c 8c 21 85 bd 76 9c 86 bc b7 db 55 bd
       0.012721745 -0.06500539 -0.016432028 -0.05221149
0002f0 3c f5 bb bc e6 6d b3 3b 9e 97 80 3c 0a 32 bf bc
       -0.022944085 0.0054757474 0.015697297 -0.02333929
000300 b4 89 84 3c 19 1f 23 3c a8 66 59 3d 7e 6e a0 3c
       0.016178943 0.009956145 0.053076416 0.019583937
000310 38 bb 69 3c 49 5b 6f 3c 65 62 06 bd 33 66 84 3c
       0.014265828 0.014609166 -0.03280868 0.016162014
000320 77 a2 b4 3b 9e 98 70 38 b8 cc 45 3d 57 50 e0 bc
       0.0055125314 5.7362595e-05 0.04829094 -0.027382059
000330 09 b4 ab bc 17 52 b7 bc 51 c0 d0 3c 53 82 3d bd
       -0.02095987 -0.02237801 0.025482329 -0.046266865
000340 d0 5e 1a 3d 67 49 35 bd 0b 51 23 3d 0f a7 4e bd
       0.037688076 -0.044259455 0.03987221 -0.05045229
000350 71 2d 8d 3d 31 e7 03 bd 2e 70 47 3d cd 92 23 3d
       0.06893433 -0.032202903 0.048690967 0.039934922
000360 32 9a 8a 3c 4b 5f 6f bd 8d b2 35 3c 9c 89 96 b8
       0.01691923 -0.058440488 0.011089933 -7.178189e-05
000370 79 6b df bb 1f 13 e7 3c 4d 9f 9d bb 8a 53 43 bd
       -0.0068182317 0.02820736 -0.00481025 -0.04768709
000380 c6 ff 08 bd 8a 4e 88 bc 4b 97 04 3d 0f cf e6 bc
       -0.03344705 -0.016639013 0.032370847 -0.028174905
000390 c9 f8 6e 3d c8 f8 4f 3c 79 d7 12 3b 1e 08 30 3d
       0.05834273 0.012693591 0.0022406264 0.04297649
0003a0 1f 21 62 bc 58 6f 5b bd ac bd 34 bd 19 a1 10 3d
       -0.013801842 -0.053572983 -0.044126198 0.035309885
0003b0 d7 16 d8 bc e9 fb 3e bd fb 17 d7 3c e8 24 11 bd
       -0.026378078 -0.04662696 0.026256552 -0.035435587
0003c0 8d a7 04 3d 70 0a 65 bd e2 21 18 bd b9 a9 8f bc
       0.03238635 -0.055918157 -0.03714169 -0.017536985
0003d0 55 81 92 3c 22 b4 94 3c 9a 51 f4 bb 83 93 3a 3c
       0.017883936 0.0181523 -0.0074560167 0.011387709
0003e0 8a c8 d3 3b 98 17 e6 bb 33 7c 4a bd cd 71 2a 3d
       0.006463115 -0.0070218556 -0.04943485 0.041612435
0003f0 ff 11 4f 3b 01 08 3e 3d b0 8d 54 3d ff 4f 22 3d
       0.003159642 0.046394352 0.051892936 0.03962707
